Implementations/model/net.pkl (torch_old, 146138 bytes, 6 tensors)

weight f4 [16, 1, 5, 5]
000000 7d 41 f1 3d db 31 58 bd 28 00 00 3e ef ea 38 3e
       0.11780069 -0.05278192 0.1250006 0.1805837
000010 ef 02 34 3e 98 9d 5c bd d3 01 58 3d 51 56 14 3d
       0.17579244 -0.05386123 0.052736115 0.03621513
000020 a3 3f 31 3c b8 b6 47 3e ed ec 62 3d 03 53 12 be
       0.010818395 0.19503295 0.05540173 -0.14289479
000030 f4 cd 44 3e 13 65 ec 3d 24 e0 33 be 52 8f 3d 3b
       0.1921919 0.11542716 -0.17565972 0.0028924537
000040 3b b4 20 be 27 ea a1 3d 3b ef 40 be 17 52 27 be
       -0.15693752 0.07905989 -0.18841259 -0.16339909
000050 f5 7e 38 be ff f0 6b bd fe 53 80 bd 82 68 66 bc
       -0.1801718 -0.05760288 -0.0626602 -0.014063003
000060 03 73 26 bd 6b 06 25 3e d7 d5 6b bc 6f 58 67 3e
       -0.040637027 0.1611573 -0.014394245 0.22592328
000070 9e 6e d3 3d bc 05 66 bd cc fd b3 3d 2a cb 03 be
       0.10323833 -0.056157812 0.08788642 -0.1287047
000080 ec 11 3c be af 56 24 3e 66 d9 55 bb 67 44 40 3e
       -0.18366212 0.16048692 -0.00326308 0.18776093
000090 19 59 40 3d 8e bc 20 3e 58 81 4b 3c 43 e9 d2 bd
       0.04695997 0.15696928 0.012420975 -0.102983974
0000a0 72 48 b0 bd 9f e4 20 be a6 9c d6 bd e6 6b 60 bd
       -0.08607568 -0.15712212 -0.10479097 -0.0547904
0000b0 c7 4b e5 bd 4a 0e 09 3e c0 f7 06 be 61 51 01 be
       -0.11196094 0.13384357 -0.13180447 -0.126287
0000c0 46 ba 12 3c f4 a6 e6 ba 35 8e 03 3e 22 15 35 3e
       0.008955544 -0.0017597363 0.12847216 0.17683843
0000d0 1e 11 0c 3e f4 0f e6 bd 81 9b 0a bc 2f 00 41 be
       0.13678405 -0.112335116 -0.008459927 -0.18847726
0000e0 d5 bf bb 3d 51 18 80 3d 97 b3 94 bd f9 7b d7 3d
       0.091674484 0.06254638 -0.072608165 0.10521693
0000f0 7f c5 87 3d 05 a5 0c 3d cd 15 2d be 97 55 24 be
       0.06629466 0.034337062 -0.16902848 -0.16048275
000100 34 88 f2 bd b9 ff 57 bd bc 97 a9 bd 49 33 cc 3c
       -0.11842385 -0.05273411 -0.08280894 0.024926798
000110 ee 65 0c bd ec d0 09 3e ea 99 2a 3d 11 ae 62 bd
       -0.034276895 0.13458604 0.04165069 -0.055341784
000120 67 3a 7d 3d bf b9 bf 3d 2a c6 3f be 1f d8 ae bd
       0.061823275 0.093616 -0.18727937 -0.085373156
000130 22 75 f4 bd 25 00 5b be 62 22 3e be 64 b0 29 be
       -0.11936404 -0.21386774 -0.18567804 -0.16571194
000140 ac 1f 1a 3b ea 29 04 be 8e 1a 12 be aa 4a a4 bd
       0.0023517413 -0.12906614 -0.14267942 -0.080220535
000150 24 e1 2e 3e dc 54 bb 3b f0 52 1b be ad e4 80 bd
       0.17078072 0.005716903 -0.15168357 -0.062936164
000160 8a 7f 9b bd a4 a7 50 3e d1 9a da 3d c7 93 9b bc
       -0.075926855 0.2037645 0.1067406 -0.018991364
000170 f6 12 01 3e 56 c9 30 3e 55 35 28 3c c0 5d 45 3e
       0.1260489 0.17264304 0.010266622 0.19274044
000180 11 80 d1 bd e9 eb 16 3e 25 a4 0b 3e 22 8d 97 3c
       -0.10229505 0.1473843 0.13636835 0.018499915
000190 ee 9f 04 be b7 9c c4 bd 6a 69 31 be 3a ce 1e be
       -0.12951633 -0.096002035 -0.17325369 -0.15508357
0001a0 7d fe 46 3e c2 ef 96 3d 72 ed f6 3d a0 2d 5f bd
       0.19433017 0.07369949 0.12057008 -0.05448687
0001b0 ae 9b 96 3d d4 d9 13 bd 80 12 97 3c f8 fc 16 be
       0.07353912 -0.03609641 0.018441439 -0.14744937
0001c0 29 ea 36 3e 50 dd 05 be d8 95 12 3d 73 cc 2f be
       0.17862763 -0.13072705 0.035787433 -0.17167835
0001d0 a0 7c a9 bd be ea 02 be 50 d1 b5 bd f5 de 30 3e
       -0.082757235 -0.1278486 -0.08877814 0.17272551
0001e0 00 41 b7 ba 59 52 3e 3e 76 22 89 bd 52 fd 40 be
       -0.0013981164 0.185861 -0.06696026 -0.18846634
0001f0 f2 f4 80 3d 92 82 3c be 4c 6f 80 bd f6 1c 94 bd
       0.062967196 -0.18409184 -0.06271228 -0.07232086
000200 86 d2 0c be da 2b 44 be b3 bf 3d be 67 cd e8 bd
       -0.13752183 -0.19157353 -0.18530159 -0.113673024
000210 8d ef 3e 3e 10 2e df 3c aa 25 b1 bd 9a d0 b1 bd
       0.18646069 0.027243644 -0.08649762 -0.08682366
000220 f5 44 1b be 38 90 09 be ea 85 31 be 00 9c 0e bc
       -0.15163024 -0.13433921 -0.1733624 -0.0087041855
000230 a2 35 b6 3d 00 7f 0c bc e2 3d be 3d 73 16 e0 bd
       0.088969484 -0.008575201 0.09289147 -0.10941782
000240 b5 fc 09 3e a5 9f 0c be 00 ee a5 bb 2a fa c9 bd
       0.13475306 -0.13732775 -0.005063772 -0.09862168
000250 cd a8 3b 3e 50 7c 17 3c ed b7 4d 3c a4 5f 47 be
       0.18326111 0.009245947 0.012556058 -0.19470078
000260 e9 8d d4 bd 1f c8 66 be d2 5f dc bd df e0 ef bd
       -0.1037863 -0.22537278 -0.10760464 -0.11712813
000270 7d 6b 41 3d ff 67 40 be 6d e6 e8 bd 46 94 84 bd
       0.04722165 -0.18789671 -0.11372075 -0.064735934
000280 f3 a5 5d be 77 56 f1 ba 84 0a 51 3e 65 bc 27 3e
       -0.21645336 -0.0018412609 0.20414168 0.1638046
000290 19 fc f3 bd 95 82 0c 3e 24 c9 04 bd 87 b5 0d 3e
       -0.11913318 0.13721688 -0.032418385 0.13838778
0002a0 44 81 df bc 01 6e 7d 3e f0 f3 a6 3b 30 ad ff 3d
       -0.027283318 0.24748994 0.0050949976 0.12484205
0002b0 41 d0 d8 3d f1 7f 1e 3e 61 ca 58 3e 6f e0 10 be
       0.10586596 0.15478493 0.21170951 -0.14148115
0002c0 d3 b7 c3 bd ba 8c 04 be 2c 65 f9 3d 66 d6 03 3e
       -0.09556546 -0.12944308 0.121775 0.12874755
0002d0 1a 9b a8 bd 21 5a a1 bc 6a eb 64 3e 92 1a 3f 3e
       -0.08232708 -0.019696297 0.22355428 0.1866248
0002e0 b3 ab 59 3e 56 d4 c2 3b 7e 03 1f be e2 7d 2d be
       0.21256904 0.0059457226 -0.15528676 -0.16942552
0002f0 87 69 77 bd 21 48 c6 3d af 17 bb bb 6e cc 04 3d
       -0.060403373 0.09681726 -0.0057096104 0.03242152
000300 69 f9 53 3e fa 5f a8 bc 0b aa 07 be 81 6a 86 bd
       0.20700611 -0.020553578 -0.1324846 -0.06563283
000310 1e eb 2f 3e bb 70 8a b8 10 ee b6 bd 6c 9b c1 3d
       0.17179534 -6.6013505e-05 -0.089321256 0.094534725
000320 1b ec f6 bd 74 36 2d bc 4e fc 6b 3e 25 d2 34 ba
       -0.12056752 -0.010572065 0.23045465 -0.0006897769
000330 e6 92 80 3d eb 3c 12 be f8 fa 2f be 33 e9 1f 3e
       0.06278019 -0.14281051 -0.1718558 0.15616302
000340 1f c1 54 3e 85 ca 3d bd 4a 0f 1d be 15 be 1e be
       0.20776795 -0.046335716 -0.15337864 -0.15502198
000350 ad 2a 7d 3e 91 c3 20 3e c2 25 02 3e 09 85 71 3d
       0.24723311 0.15699603 0.12709716 0.058964763
000360 21 ff 0e 3e 81 5d d1 bd d5 29 65 3c 31 9b d2 3d
       0.13964511 -0.102229126 0.013987024 0.10283507
000370 65 12 da bd b7 1b 94 3c f1 20 fc 3d 44 4f 2c be
       -0.1064804 0.018079622 0.123109706 -0.16827112
000380 f4 d3 86 bd 5a 61 50 bd 2c 04 94 3d 09 65 af bd
       -0.065833956 -0.05087409 0.07227358 -0.08564193
000390 90 58 10 3e b8 36 0d be c6 5b f4 3d 8a 12 0e be
       0.14096284 -0.13790405 0.11931567 -0.1387426
0003a0 26 66 1e be d9 c8 24 bd 37 43 7d 3d 73 fc 28 3d
       -0.15468654 -0.040230606 0.06183168 0.04125638
0003b0 28 a9 2c 3e dd f9 31 be 5f 3e 89 bd c5 ba 2c 3d
       0.16861403 -0.17380472 -0.067013495 0.042170305
0003c0 7b ee 2e 3e 9a 31 5e 3e e7 af 0b 3e f3 9d 82 bd
       0.1708316 0.21698609 0.1364132 -0.06377783
0003d0 79 98 19 be a9 5f 25 be 73 18 48 3e 04 35 26 3e
       -0.1499957 -0.16149773 0.19540577 0.16231161
0003e0 46 92 5f 3d 2f 57 0d be b1 bd 17 3e ce c4 a9 bd
       0.054582857 -0.13802789 0.14818455 -0.08289491
0003f0 d7 f3 05 be 08 8e a8 3d 61 fd 0a 3e 8d 9d 0c be
       -0.13081299 0.08230215 0.13573219 -0.13731976

bias f4 [16]
000000 65 ab 59 3d b5 67 10 bc 03 68 59 3d 13 9e 4a 3e
       0.05314197 -0.008813788 0.05307771 0.19786863
000010 27 12 3a be 86 55 95 bd 8c 60 40 3d 24 b5 c8 bd
       -0.18170987 -0.07291703 0.046967074 -0.09800175
000020 cf 05 08 be 42 a5 69 bd 66 de 90 3e dc 66 21 3e
       -0.13283466 -0.057042368 0.28294677 0.15761894
000030 75 59 84 3d a0 9c f2 bd 67 7d 8d bd 6d a1 f7 bd
       0.06462375 -0.1184628 -0.06908684 -0.120913364

weight f4 [32, 16, 5, 5]
000000 34 44 14 bd 4b 1e bb bc b5 18 1e 3d e4 46 23 bd
       -0.036197856 -0.022841593 0.03859778 -0.03986253
000010 b4 f2 3b bc ae cb 31 3d 6a b0 3a 3d cc b0 87 bc
       -0.011471439 0.043407135 0.045578398 -0.016563796
000020 61 d5 16 3d 9c 5d eb bc f1 6a c8 bb d0 d0 2b 3d
       0.036824588 -0.02873116 -0.006116264 0.041947186
000030 84 50 06 3d ff 76 82 3c 6d 2e 07 bd 3d c0 e6 bc
       0.03279163 0.015925882 -0.03300326 -0.028167838
000040 19 d8 86 3c 3b 7a 3c bd 94 f4 14 bd 6b 9b 7f 3c
       0.016460465 -0.046015006 -0.03636606 0.015601019
000050 c0 5c 58 ba 27 cd 0e 3d 13 23 37 bd d4 f5 5b 3c
       -0.0008253567 0.034863617 -0.044711184 0.013425309
000060 9b bd 1e 3d fd df 16 3d cc 9f 01 bc 0a 41 22 bd
       0.03875504 0.036834706 -0.007911634 -0.039612807
000070 90 0e 94 bb 5f be 28 3d 62 1d b1 3c a8 23 3e bd
       -0.0045183375 0.041197177 0.021620456 -0.046420723
000080 33 c6 1f bd 30 ed ac bb c2 c8 b3 3c 2e ae e1 3c
       -0.039007377 -0.0052772984 0.021946315 0.027548876
000090 06 aa 8d 3c cf ba 03 3d ae b9 cd 3c 00 be 92 bc
       0.017292988 0.032160576 0.025112953 -0.017912865
0000a0 83 87 10 3d b6 de 92 3c f3 f3 fc bc 20 16 29 bb
       0.035285484 0.017928462 -0.030878043 -0.002580054
0000b0 70 03 2a bd 00 fb 04 3b 02 7e eb 3c e8 68 3a bd
       -0.041507185 0.002029121 0.028746609 -0.045510203
0000c0 2c 1d 0d bc b4 f6 76 bc 60 7d ad ba 9c 59 4f 3c
       -0.008612912 -0.015073467 -0.0013236217 0.012655642
0000d0 b4 73 2c 3d 5b 8f 60 bd 19 d1 42 bd de 43 5a bd
       0.04210253 -0.054824214 -0.047562692 -0.05328738
0000e0 f2 05 be 3c 6a 6e 47 3c cf 66 22 bd 80 f7 10 bd
       0.023196194 0.012172321 -0.039648827 -0.035392284
0000f0 30 65 24 3d f0 b8 1f 3d bb f7 7d 3c 63 86 d6 bc
       0.040135562 0.03899473 0.015500958 -0.026187127
000100 bb 57 0b bd 93 74 f3 bc 76 84 d2 3c c5 a1 2b 3d
       -0.034019213 -0.029718673 0.025697928 0.041902322
000110 40 52 46 bc 30 12 01 bb 92 68 f2 3c ed 38 4c bd
       -0.012104571 -0.0019694678 0.029590879 -0.049858976
000120 7e 62 8b 3c 75 c4 04 3d 12 d6 22 bd bd 29 d7 bc
       0.017014738 0.03241392 -0.039754935 -0.02626502
000130 00 d0 d7 bc 20 61 3e bb 3d 6c d3 bc cc 5d 99 bc
       -0.0263443 -0.002904959 -0.025808448 -0.018721484
000140 0a e0 98 3c 0a 0d a4 bc f8 ea 31 3c 19 dc 1c 3d
       0.018661518 -0.020025749 0.010859244 0.03829584
000150 bb a8 2d bd 19 5b 37 3d 87 58 b3 bc dd ed 58 bd
       -0.042397242 0.044764612 -0.021892799 -0.05296122
000160 75 00 06 3d b8 21 d3 bc 57 f3 e5 3c 4a cc 95 3c
       0.03271528 -0.025772914 0.028070135 0.01828589
000170 b3 78 fb bc 8a 05 61 bd 84 01 ec 3c cb a1 1c bd
       -0.030697202 -0.054936923 0.028809316 -0.038240235
000180 8a ab 31 bd e8 65 a9 bb 00 fa cf b8 00 cc e2 39
       -0.043376483 -0.005169619 -9.917095e-05 0.0004325807
000190 34 5b 77 bc 2c b4 4c bc dc f0 89 bc 1f 87 33 3d
       -0.015097428 -0.012494128 -0.016838484 0.043830033
0001a0 72 6b 1b bd 7e 1d 26 bd 4a b5 85 3c cb f4 3d 3d
       -0.037944265 -0.04055547 0.016321797 0.04637603
0001b0 a8 f6 07 bc e0 77 4a bc 56 a6 06 bd b9 41 40 3d
       -0.0082985535 -0.012357682 -0.032873474 0.046937678
0001c0 98 58 2b 3c 30 3a ce bb f1 0d 11 3d f4 e8 4a 3c
       0.010458134 -0.0062935576 0.035413686 0.012384642
0001d0 f3 5c c9 bc ad aa 10 3d 2c 8d 04 3c 50 c7 d6 bb
       -0.024580454 0.03531902 0.008090299 -0.0065545216
0001e0 a8 5a 8e bb a0 90 bf ba e0 1d 33 3c 26 6f 1f bd
       -0.004344303 -0.0014615245 0.010932416 -0.03892436
0001f0 23 b3 f7 bc 68 ff 02 bc b1 2f 46 3d 90 e9 b8 3b
       -0.030236786 -0.007995464 0.048385326 0.005643077
000200 08 e0 60 bc 61 83 41 3d 00 73 f9 39 df bd 14 3d
       -0.013725288 0.047244433 0.00047578663 0.036313888
000210 0e af e9 3c 77 96 25 3d 08 eb 43 3c 56 fd f7 3c
       0.028525855 0.040426698 0.011957891 0.030272167
000220 30 a3 77 bb d1 17 2e 3d 08 0a 3f bc 90 7e f8 bb
       -0.0037786476 0.04250318 -0.0116601065 -0.007583447
000230 8c f0 84 bc 77 87 04 3d 27 35 f2 bc 50 71 f2 3b
       -0.016227983 0.03235575 -0.02956636 0.007398762
000240 6a 05 cf bc 70 36 e0 3b 1a e0 24 bd 95 60 2d bd
       -0.025271136 0.006842427 -0.040252782 -0.042328436
000250 a0 bb 37 bb ca 2d 10 bd e3 63 a2 bc 52 2d 54 3c
       -0.0028035417 -0.035199918 -0.01982302 0.012950258
000260 c5 64 d2 bb 0b 2e fc bc d2 7a a9 3c a2 88 ad 3c
       -0.006420704 -0.030783674 0.020688448 0.021183316
000270 0e ba c3 3b 32 7f b3 3c 08 fc fe bc cb 48 f5 3c
       0.005973107 0.021911237 -0.031126037 0.029941937
000280 5b 48 8e 3c ad 69 66 bb 3e 4d 16 bd 1b a1 1c 3d
       0.017368486 -0.0035158203 -0.036694758 0.03823958
000290 e8 e9 82 bc bd 34 1b ba c0 59 ae bc ab 91 8a 3c
       -0.015980676 -0.00059206394 -0.02128303 0.016915163
0002a0 77 40 68 bc 08 cb 06 bd 7a 41 d5 3c 60 7b 5c bc
       -0.014175526 -0.03290847 0.026032198 -0.013457149
0002b0 e8 a1 e7 3b f8 05 34 bc 48 2a 48 3c 56 f5 8a 3c
       0.0070688613 -0.010987751 0.012217112 0.016962688
0002c0 c5 10 e5 bc 8c ff 28 bc ca c0 12 bd e7 4f b9 bc
       -0.027962098 -0.010314833 -0.03582839 -0.022621108
0002d0 ab ea 14 3d f0 eb 06 bc 55 8b 25 bd b2 c2 98 3c
       0.03635661 -0.008234963 -0.04041608 0.018647525
0002e0 e0 20 25 bd 34 64 25 3c ab c9 ae bc 98 3b af bb
       -0.040314555 0.010094691 -0.021336397 -0.0053476803
0002f0 f4 33 97 bc 3d 3c 14 3d 81 a3 10 3d c3 5e ab bc
       -0.01845739 0.03619026 0.03531218 -0.02091921
000300 e1 80 1b 3d 00 64 d9 b8 48 7e 36 bc fb 2a 35 bd
       0.037964705 -0.00010365993 -0.011138506 -0.044230442
000310 61 68 2f 3d 83 56 9b bc 32 91 f8 3c 87 2a 34 bd
       0.042824153 -0.01896215 0.030342672 -0.04398587
000320 46 aa bc 3c 9f ed 49 3c 6a a7 ca 3c 71 e0 08 3d
       0.023030411 0.01232472 0.024738032 0.03341717
000330 7a 43 08 bd 2b e8 17 3d c4 e8 04 3d e9 77 15 3d
       -0.033267476 0.037086647 0.032448545 0.03649131
000340 4c fa 7e bc c0 7a ac ba 60 43 c4 ba 60 10 7e bc
       -0.015562605 -0.0013159141 -0.0014973693 -0.015506834
000350 72 f2 95 3c 54 a9 04 3c 48 e1 75 bc 12 a4 a9 3c
       0.018304083 0.008097012 -0.0150073245 0.020708118
000360 83 ef 3b 3d c0 39 22 bd 00 54 6a 3b d0 75 05 bb
       0.045882713 -0.039605856 0.0035755634 -0.0020364411
000370 30 04 77 3b 3d 4d 17 3d e7 5a d7 bc 1e 49 c3 3c
       0.0037691705 0.036938895 -0.026288463 0.023838576
000380 94 29 01 bc 41 5d 1d 3d 50 00 45 bb 02 92 f3 3c
       -0.007883448 0.038419012 -0.003006 0.029732708
000390 a9 61 41 3d ec cd 46 bc 5a c1 80 bc 00 ed 9f ba
       0.047212277 -0.012134057 -0.015717197 -0.0012201369
0003a0 8d 50 d4 bc 44 7e 02 bd a7 4d 1d 3d ae da a1 3c
       -0.025917316 -0.031858698 0.038404133 0.019757595
0003b0 bf 41 1b 3d ae bb f7 3c e8 a0 31 bc f3 9d 4a 3d
       0.037904497 0.03024086 -0.010841586 0.04946704
0003c0 cc d5 46 3c 00 3c 0c bd 89 70 3a 3d 81 6f 2b 3d
       0.012135934 -0.034236908 0.04551748 0.041854385
0003d0 7d 5b b6 bc a8 97 1c bc 76 b1 a6 3c e6 da 88 bc
       -0.022260422 -0.009557642 0.020348292 -0.016705941
0003e0 3b da 0f bd 36 4e e0 3c fb 1e 0c bd 87 37 2b bd
       -0.03512023 0.027381044 -0.034209233 -0.041801002
0003f0 13 65 ea bb 3e bb 33 bd cb b0 42 3d 9e 6d 53 bd
       -0.0071531623 -0.04387974 0.047531884 -0.05161821

bias f4 [32]
000000 31 e6 84 ba 21 dd 65 3b 45 80 1d bd ff 16 8f 3b
       -0.0010139403 0.003507443 -0.038452405 0.004366755
000010 8e 7e 62 3c 6b 51 a8 3d 5b d4 a5 bd dc d5 74 3c
       0.013824118 0.08218654 -0.08097144 0.014943566
000020 91 78 57 bd df 28 3c bb f4 17 45 bc 5d 14 61 bd
       -0.052605215 -0.0028710885 -0.012029637 -0.05495106
000030 d4 62 ec b9 c4 9c 14 3d 24 c3 5d 3b f4 7b 6f 3b
       -0.0004508706 0.036282316 0.0033838237 0.0036542388
000040 99 bc 3f bd 9c 7a 21 bd a0 35 13 3c c6 8c c9 bc
       -0.04681072 -0.03942357 0.008984953 -0.024603259
000050 76 5a f5 bc e0 6a eb 3c a5 d5 f9 bd 4c 70 82 3c
       -0.029950362 0.028737485 -0.121989526 0.015922688
000060 d6 55 8e bd 96 1d d1 bc 21 4d 51 3b 3e a4 15 bc
       -0.06949966 -0.025526803 0.0031936842 -0.009133397
000070 63 b1 2b bd e5 44 50 bd 1e f9 c9 3d f5 45 0c bb
       -0.041917216 -0.050846953 0.098619685 -0.0021404002

weight f4 [4, 4608]
000000 a3 6d 14 3c 62 11 85 bb 16 33 e1 3b 03 24 19 bc
       0.009059343 -0.00406091 0.006872545 -0.009346965
000010 66 0d e3 3b f8 a9 da 3a b2 d8 c1 3b 80 b6 8c ba
       0.0069290875 0.0016682735 0.0059157247 -0.0010735542
000020 14 22 aa bb fe 7d d4 bb 39 af 60 3c 5d 50 09 3c
       -0.0051920507 -0.006484746 0.013713651 0.0083809765
000030 3e 09 b4 3b 10 c6 6b 3a 50 c0 a7 ba 49 8a 70 bc
       0.005494266 0.0008994052 -0.0012798402 -0.014681407
000040 b3 ed 3c bc a4 17 2b bc da e2 8d 3b d0 d2 10 3a
       -0.011531281 -0.010442648 0.0043300213 0.00055245776
000050 af 90 6c bc 6b f3 57 3c 4e 06 a5 bb 9d b9 26 3c
       -0.014438792 0.013180594 -0.005036152 0.01017609
000060 93 88 4c 3c c0 6b bb 39 c0 27 45 bb f3 53 10 3c
       0.012483734 0.000357477 -0.0030083507 0.008809078
000070 54 07 d9 bb bc 7e 49 bc 98 ad df 3a 92 e9 98 3b
       -0.006623188 -0.012298282 0.0017065285 0.0046665156
000080 1f 29 6c 3c 66 91 e7 3b 6f 6f 1f 3c 1b fb 2d 3c
       0.014414101 0.0070668934 0.009731158 0.01061895
000090 b7 15 65 bc ce 07 b2 bb 6c a2 40 3b 56 c8 e2 3b
       -0.013982228 -0.0054330593 0.0029393686 0.0069208546
0000a0 86 84 e6 3b 58 4d 02 bb cc b2 9b bb 50 76 7b 3a
       0.007034841 -0.0019882526 -0.004751539 0.000959252
0000b0 6c 97 1d 3b 40 08 8c 39 a0 a8 ee 39 ba 75 fa 3b
       0.0024046553 0.00026709028 0.00045520533 0.0076434286
0000c0 97 c3 43 3c e4 9e 34 bb 60 73 dc 39 f3 a0 01 3c
       0.011948488 -0.0027560527 0.0004204763 0.007911908
0000d0 94 95 08 bc 04 9b 49 bb a8 6b 27 bb 34 c8 2b bc
       -0.008336443 -0.0030762563 -0.0025546346 -0.010484744
0000e0 5a 30 16 bc 3a 7d ee 3b 08 5d a5 3a f5 25 06 3c
       -0.009166801 0.0072781118 0.0012616226 0.008187761
0000f0 7d de 0d 3c d0 b9 fc bb ea 86 5a bc 80 a1 c4 39
       0.008659002 -0.0077125803 -0.01333783 0.0003750436
000100 cc 6d 00 3b 3b d6 1c bc c8 11 72 bb a2 b2 d0 3b
       0.0019596694 -0.009572561 -0.0036936868 0.006368951
000110 61 d0 3d bc 26 44 9a 3b 5e 95 93 bb 71 46 63 3c
       -0.011585326 0.004707831 -0.00450389 0.013871775
000120 e3 e0 26 bc 9c 3f ac bb ce 49 6c bc c0 0c 32 bb
       -0.010185453 -0.0052566063 -0.014421893 -0.0027168244
000130 a2 69 be 3b 98 99 7a bb 64 31 ff bb 07 e5 32 3c
       0.0058109323 -0.0038238522 -0.0077878702 0.010918862
000140 ff e8 3e bc a4 fc 28 3b d0 52 33 bb b4 9f 2f 3b
       -0.01165223 0.0025785351 -0.0027362593 0.0026798071
000150 b8 23 c1 bb 72 bb b9 3b 6c 7a 67 bc d6 4a 51 bc
       -0.0058941506 0.005668097 -0.014128309 -0.01277419
000160 1b 1a 2f 3c 6b 56 48 bc 28 f8 67 bb fc 53 2d 3b
       0.010687376 -0.012227635 -0.0035395715 0.0026447764
000170 8e 68 86 bb 51 02 68 bc 50 22 d3 bb fd 4a 07 bc
       -0.0041018194 -0.0141607085 -0.0064432994 -0.008257625
000180 9c 99 0d 3b aa 13 fb 3b c1 8c 29 3c c8 cb 30 bb
       0.002160645 0.0076622562 0.0103485 -0.0026976932
000190 dc a4 07 bb 00 ca 0c 38 f5 c0 40 3c 30 26 b8 bb
       -0.002069763 3.356673e-05 0.011764755 -0.0056197867
0001a0 ee 81 ba 3b 00 71 d3 b9 5c 73 fa bb 02 40 a6 bb
       0.0056917584 -0.00040329248 -0.0076431464 -0.0050735483
0001b0 15 4d 1c 3c b8 1b 89 bb 87 03 0e bc 4e a4 da 3b
       0.009539862 -0.0041842125 -0.008667833 0.0066724187
0001c0 ea 10 2e bc 74 1a 3f 3b b5 3e 51 3c 80 bb 7d bb
       -0.01062415 0.0029160054 0.012771298 -0.0038716495
0001d0 eb c8 0f 3c 0c 96 b8 bb 93 43 69 3c 63 52 0c 3c
       0.00877593 -0.0056331214 0.014237302 0.008564564
0001e0 11 28 56 bc df 4e 12 bc fa c0 f8 3b 56 65 9c 3b
       -0.013071076 -0.008929937 0.007591364 0.0047728224
0001f0 d8 65 d5 3a 49 16 5d 3c fa d3 e2 bb 48 28 a2 bb
       0.0016280962 0.013494083 -0.006922242 -0.0049486496
000200 e0 cd 3f 3a 87 a6 48 bc de 30 e0 3b 0c fa a5 bb
       0.00073167495 -0.012246734 0.006841763 -0.0050652083
000210 91 52 ed 3a c4 ba 53 3b 8b ea 63 3c 44 22 6f bb
       0.0018106272 0.0032307366 0.0139109 -0.003648893
000220 29 ed 2c 3c c7 cc 37 bc 71 e1 6b 3c 82 9f b9 3b
       0.01055459 -0.011218256 0.014397011 0.0056647668
000230 06 08 8a bb ab 5a 61 ba 6e eb b0 bb 4d ba 1d 3c
       -0.0042123822 -0.00085965794 -0.005399159 0.009626937
000240 44 9d 8d bc 30 1d c8 bc 30 95 dc bc e7 71 97 bc
       -0.017286904 -0.02442798 -0.026926607 -0.01848693
000250 8c 11 96 3c c4 8f 78 3d 73 a4 7b 3d 09 2a c4 3c
       0.018318914 0.06068398 0.061436128 0.023945825
000260 89 1e 08 3c f8 03 6b 3c cf 24 14 3d 0d 79 8f 3c
       0.008308061 0.014344208 0.036167916 0.017513776
000270 56 ed d8 bc b1 0b bb bc 19 5b f6 bc 2d 93 02 3c
       -0.026480358 -0.022832723 -0.030072736 0.00796966
000280 8f 17 79 3c 80 26 7c 3d ae 5e 2a 3d 41 46 9a 3c
       0.015203371 0.061560154 0.0415942 0.018832328
000290 00 43 2d 3b de ca 29 3c 0e d7 d3 3c bb f7 65 3c
       0.002643764 0.010363309 0.025859382 0.014036114
0002a0 22 7e 31 3c a8 f2 9e bc c4 43 61 bc 2a 76 d6 bc
       0.010833295 -0.019402817 -0.013749067 -0.026179392
0002b0 b6 e1 8b bc 66 3c e0 bc 29 44 ba bb d4 0e 9c 3b
       -0.0170754 -0.02737255 -0.005684395 0.00476251
0002c0 a9 03 a8 3c 6e 0b b1 3c e4 b7 52 3d 13 fd 25 3d
       0.020509558 0.021611895 0.051444903 0.040524554
0002d0 ea 4a 13 3d 28 43 9e 3c 32 89 83 3c 72 31 e5 3b
       0.035960115 0.019319132 0.01605663 0.0069944197
0002e0 ad 03 9d bb 7e e5 02 bd 37 79 fa bc 23 6f 26 bc
       -0.004791698 -0.031957142 -0.030575378 -0.010158333
0002f0 e7 69 6d 3c dd ee 46 3d ef 49 7d 3d fc 82 87 3d
       0.014490581 0.04856764 0.061838087 0.0661678
000300 f1 36 12 3d 43 45 a8 3c 7e 37 37 bb 9e b5 2f bc
       0.035696927 0.020540839 -0.002795666 -0.010724453
000310 0c 78 ea 3c 73 99 b5 3c 72 82 cf 3b 34 6c c6 3b
       0.028621696 0.022167897 0.006332689 0.0060553793
000320 52 ec 96 3c df 6a 3c 3d dc 53 75 3d 21 5f 8e 3d
       0.018423233 0.046000358 0.059894428 0.06951738
000330 2c 27 64 bc 8b e1 a0 3a b6 d4 b4 bc 37 0a 14 3c
       -0.013925355 0.0012274248 -0.022074085 0.0090356385
000340 5a 98 8d 3d a2 da 5f 3d a0 bf 39 3d c1 6b 00 3d
       0.069138244 0.054651864 0.045348763 0.031352762
000350 71 86 b8 3c a0 9e 42 3d 0a 72 1e 3d 30 75 4e 3d
       0.022525044 0.047514558 0.038682975 0.050404727
000360 f8 d0 52 3b fb d4 56 3c 95 f0 b5 3c a1 1b fc b9
       0.0032168012 0.013112302 0.022209445 -0.0004808577
000370 7e 0e 5a 3d 1b b2 28 3d 24 50 b2 ba 20 99 26 3d
       0.053236477 0.04118548 -0.0013604206 0.040673375
000380 1d e9 04 3d 0f 51 c9 3c 82 01 93 3c 4e de 81 3b
       0.032448877 0.024574785 0.017945055 0.0039632684
000390 bb d4 21 3d 5b 09 15 3d 3a 2e 71 3c 14 6d a8 3c
       0.039509516 0.036385875 0.014720494 0.020559825
0003a0 b7 d7 5c 3c 68 8b 16 3d e9 4e 30 3d 27 7e ea 3c
       0.013479165 0.036754042 0.043044005 0.028624607
0003b0 b6 d6 16 3d 66 c9 84 3c cb 89 f8 ba d7 66 04 bd
       0.036825858 0.016209316 -0.0018961964 -0.03232464
0003c0 3c 90 bd ba a1 b5 b1 3c af 18 86 3c d1 50 11 3c
       -0.0014462541 0.021693053 0.016369192 0.008869366
0003d0 90 70 c0 3a b6 90 41 bc 94 8d 8d 3b e0 c6 94 3c
       0.0014681984 -0.011814287 0.004319856 0.018161237
0003e0 0e 0a 04 3d a2 c8 17 3d bf 3a ef b9 88 fc 14 bd
       0.03223615 0.037056573 -0.00045629402 -0.036373645
0003f0 d7 a1 0b 3c e4 f6 d1 3c ba 16 5a 3c e1 75 16 3a
       0.008522472 0.025630422 0.0133110825 0.0005739611

bias f4 [4]
000000 07 1b 83 3b 1d d6 27 ba 0a a2 42 3b d3 d0 85 bc
       0.0040010246 -0.000640245 0.0029698634 -0.016334927
